sine_model_1_HL_16_HN_600_epochs.pt (torch_old, 978 bytes, 3 tensors)

0.weight f4 [16, 1]
00000000: a84d 4dc0 8c95 9ebf 9a58 88c0 ec8b 46bf
00000010: bf5f d2c0 07fb f3c0 56cf 4ebf 61d3 54c0
00000020: 78a0 06c0 1df5 92c0 2a73 89bf b9a9 45bf
00000030: adc2 b8c0 86ef cdc0 f742 f7c0 9111 9d3f
-3.2078648 -1.2389388 -4.2608156 -0.77557254 -6.5741878 -7.624393 -0.8078512 -3.3254015
-2.1035442 -4.592421 -1.073827 -0.772121 -5.773764 -6.4354887 -7.7269244 1.2270986

0.bias f4 [16]
00000000: 02b5 20c0 54d3 553c 6489 78c0 d67d db3f
00000010: e710 ecc0 c396 e3c0 4d7d 1c40 0303 3f3f
00000020: 8fd7 8140 6606 8bc0 7c98 a73e ae54 c73f
00000030: d835 fcc0 d679 e3c0 978b f0c0 bc48 e5c0
-2.5110478 0.013050873 -3.8833857 1.7147777 -7.3770633 -7.1121535 2.4451478 0.7461397
4.0575633 -4.344531 0.32733524 1.5572717 -7.8815727 -7.1086226 -7.51704 -7.1651287

2.weight f4 [1, 16]
00000000: e2bd b03c c766 083f c463 dcbe 787a b63f
00000010: 7464 ee3d da1a dc3e 53b3 cf3f 0c34 11bf
00000020: 9754 edbf 28e2 e6bd fe08 283f 68e2 bc3f
00000030: aea2 f03c 0dec 293d a21d 063f f1ba fc3f
0.021574918 0.53281826 -0.43044865 1.4256124 0.11640254 0.42989236 1.62266 -0.5672004
-1.854144 -0.11273605 0.6563872 1.4756594 0.029374447 0.04148488 0.52388966 1.974455
